saved_model.pth (torch_old, 704154 bytes, 10 tensors)

cnn_1.weight f8 [16, 1, 5, 5]
00000000: 00d0 d91d fdf5 c1bf ff08 fe11 8e33 dabf
00000010: 0d51 6790 bdfe d1bf 4f6e e13f e26d a53f
00000020: 1cb5 0a32 a686 b4bf f2fc fd4a bf45 d3bf
00000030: 96c2 1d13 db40 bbbf c0f0 dad3 5de8 9e3f
00000040: c94f f949 16a4 c13f 638a a601 564b c3bf
00000050: a8e3 7d32 600a ccbf dd80 a02e 6c21 c13f
00000060: 96b0 eed7 41c1 c03f 0522 6ac3 e773 d1bf
00000070: b02f d9ae 7dd5 bebf 3748 a7fb 98b7 a8bf
00000080: ead1 dfda 0389 c8bf 3b49 49c5 00e6 b73f
00000090: a341 2f59 afe1 cbbf 1099 bfec bd5e d5bf
000000a0: 2033 e2c3 4254 b43f b70c 80aa 61fe ca3f
000000b0: d957 fc52 2643 c23f 5d0a a46f 5859 ad3f
000000c0: 2073 0189 714d b13f 8115 b12f 2bf3 c3bf
000000d0: 3d7b 437c 5ee1 d2bf d24e 7226 7570 af3f
000000e0: 5a83 9cdd ee5c 94bf 8d02 ce86 34fc b13f
000000f0: fd17 b6db 7666 c6bf fd18 62c3 9f66 c5bf
00000100: 2d2f c3c0 1bed bcbf 2e60 814d f1ab d03f
00000110: 39d0 85f2 f7a7 b93f 5dfb 13fe cb6e e1bf
00000120: aec6 7904 ccdc bcbf 1e98 65dd bb85 823f
00000130: e1f7 1c25 b9d3 a43f 5d82 cae4 6c64 ba3f
00000140: 4d19 dd5d 9f76 e7bf c95e fe86 0e3a aabf
00000150: 8a60 56a9 b6ad a73f 5dc3 1f50 4e0f ba3f
00000160: 1fa6 796f f92a a63f 6a9f 7084 6d20 c9bf
00000170: 6ebc 97eb 28b0 ddbf ed15 bb53 b215 c1bf
00000180: 15bd a804 1043 c0bf 1837 6cb3 2d7b 9cbf
00000190: 80af 7104 9e8b 663f 74c5 d7bf b2ea 713f
000001a0: 0a06 3350 a61e 4f3f 86ac af99 1a31 be3f
000001b0: 3212 4cab 23ae bd3f f30b ce41 9cd0 b5bf
000001c0: 253a 5909 ee28 88bf cef2 ca5b ebbf ca3f
000001d0: 409f 8b0f ac31 babf 6a6c 345d adc8 9cbf
000001e0: a6e8 8a54 1db9 c0bf 3841 63d7 f322 bb3f
000001f0: f816 a064 e9df ca3f 6ef8 5e5c 45fa c1bf
00000200: 6423 5b58 a70e aebf b2ba 58a4 1cfa a93f
00000210: 4db2 4bc3 44df c93f 1b3e 9b94 34e4 b5bf
00000220: 2747 3994 3739 d5bf f42c b409 94a6 c1bf
00000230: ab39 a203 354a c33f 0e3f 95db e780 b23f
00000240: 797b c23c 2a96 d3bf 620b b82b 49a7 c2bf
00000250: debb c8ac 8733 c63f b0f6 5b98 74e0 a83f
00000260: 7620 c5e6 5c9c babf 06fe 1fda 3527 bf3f
00000270: 38a0 9d43 1b13 97bf 2295 2ec3 c40e 923f
00000280: a8a0 b6b5 abf6 babf 2d88 7093 77e6 c7bf
00000290: 9261 bf7f 899f b8bf 6e74 9701 4de2 b53f
000002a0: 73bd 400f e595 7c3f cd08 6a9e de6c 713f
000002b0: ab12 7d32 a96c c33f 3126 9c8b 32c2 d23f
000002c0: 8ae1 0066 ed8b ca3f c8b3 00c3 f81c cdbf
000002d0: 635d a94a 9d2c 963f e072 4391 3f55 c43f
000002e0: a9c6 323a 2d02 a63f 0982 37a0 f2e3 a7bf
000002f0: 03cc f626 7591 d0bf 0081 00e7 bc37 c2bf
00000300: db4f 003d 8925 d1bf 25a5 00dc aeea e1bf
00000310: 6570 6596 c2cf d2bf 5c19 d814 0c33 7fbf
00000320: a978 1f5d 34e7 a6bf db0b 5b37 eb15 cdbf
00000330: 10a0 c51f 1695 8bbf 0151 4dfb 1cc4 9a3f
00000340: a84c 95d0 b6d0 b43f 1770 8353 f54a ba3f
00000350: 3d6d 3955 4a79 853f 2f42 379b 4508 d1bf
00000360: 5c57 099a 37d6 d3bf 40ba bed7 2bbe a6bf
00000370: 05ce 6473 9b7c c63f 96c2 166b 3996 7a3f
00000380: 4cb5 65fb 07c9 b0bf e719 a820 ac40 ba3f
00000390: ee7a d4ba a93b a7bf 35c1 9048 abc5 ba3f
000003a0: 4bbd cb47 e10b a53f 6a9d 3d81 11ee bfbf
000003b0: f9a6 60ec c99c d03f e235 886c 59b3 bf3f
000003c0: cd87 6f89 8abb c53f d9af d0d2 779d c33f
000003d0: 02bf bb1e 69b9 bebf 2d22 c4fd 679c c3bf
000003e0: c35b 3517 f16f c53f e428 329b 7ceb a13f
000003f0: 2774 6086 3d59 81bf 8eb1 6f36 ebd6 a33f
00000400: d960 4329 f085 a63f 6f96 b27f 4146 d5bf
00000410: a263 3f87 14eb 87bf 4952 dd5f c7e2 c1bf
00000420: 5197 2b1b ddaa 98bf 93bf 20c7 e45e cd3f
00000430: 1546 0564 b090 b23f 52c2 c83b 259d bebf
00000440: 0156 f9f0 fedf 903f 0ba1 dd42 df7c aebf
00000450: 0e8c 75a8 45cb c63f 8df3 9de3 7eb9 69bf
00000460: c573 312d 13df d23f add4 ffc9 f5ca c93f
00000470: 8d2c 79ee 49a0 b6bf 590a b6e4 263b 9bbf
00000480: 2a54 b8b2 122f c23f 5524 3d33 b47a cdbf
00000490: 43eb 9d41 bdbb c33f 59a3 8a0e 285e aa3f
000004a0: f42e 2871 02ff c43f 2b66 a20d 59cc c23f
000004b0: f4c9 8150 cded d8bf e3d0 108d 763e debf
000004c0: 92e1 7a63 9d70 dabf 079c 9ae0 a5d2 cfbf
000004d0: 460f 84e5 e42b cbbf b149 b386 c3bd b9bf
000004e0: 7ac7 9a1d e885 d4bf 9a67 8227 ba68 d5bf
000004f0: 3c37 dd54 226d c8bf 9c3f 4482 a3f2 9dbf
00000500: 4414 ee00 ecbd b13f b46a ed67 6f10 bebf
00000510: b8cf 76c9 3e13 993f 27b8 370d f9e7 a3bf
00000520: e042 19bf 338b d4bf 2c14 9d18 c5d4 c73f
00000530: 24ad 3c86 b34a c03f 3073 a0e0 a9c6 c03f
00000540: fcbf 0f20 914b bc3f 5d90 4fdf 03b1 dfbf
00000550: 1aca 1257 c4bf c9bf f718 558a 33f2 c63f
00000560: 4847 f6b1 c1e4 b9bf 67c3 d298 bf97 c13f
00000570: 22af 8fbb f7a6 cebf 889a dc26 15cc b0bf
00000580: 299d b036 234a c5bf c49d 564c eee8 96bf
00000590: 20ba 4634 4e24 a4bf b0a1 2113 593e c0bf
000005a0: 1f44 f590 d83e e1bf 7967 4fa2 aa53 c2bf
000005b0: 8098 7957 f275 bbbe faee 482d a3be c83f
000005c0: ca62 6f96 9f1a b63f 51ce 3b6b e539 e1bf
000005d0: 62d9 1a54 a0de d43f 9079 b453 fd0f c23f
000005e0: 2f38 f505 2a90 72bf 5df5 1840 accd 343f
000005f0: 2fc8 a15e b8fa b1bf 8e7a e856 2dda b4bf
00000600: 3cba 9eba 8eb7 c1bf 138e 62c2 e3b2 c83f
00000610: a5c6 b5aa e76f b2bf c2ea 26d6 c019 c3bf
00000620: 0163 0cb4 fbf4 bebf 3e7e 48b9 51ec b73f
00000630: 90ce 4923 e01b cd3f 930c 847a 31e2 d1bf
00000640: e2bf 12ed 8a48 b53f 0fc5 a036 c14e 92bf
00000650: aa21 de7b 3a68 ddbf 2bcf 3f1b 104b c0bf
00000660: cdd0 df87 4e18 a63f f465 b962 2082 a2bf
00000670: 2231 8e14 4bb2 c8bf 7898 6b67 361b d6bf
00000680: 1687 c38c 4045 d23f 79de 11e6 c964 c63f
00000690: 477e 53a3 74e0 c13f ff55 7f48 420f ce3f
000006a0: dd6e 867d 2272 c33f 23ae d899 8505 c83f
000006b0: 5dcd e94b 9555 c2bf 9420 374a 1652 adbf
000006c0: b4a4 8872 69fa 9abf 67cf 9880 34a9 c03f
000006d0: e013 66dd 7b48 82bf 77c5 f033 392e d0bf
000006e0: 5d1f 8691 6fd4 a0bf d3df 11e4 8fca a6bf
000006f0: 457b f749 387c d1bf db37 2685 42ef b9bf
00000700: 5e59 ece4 7154 c13f e6a7 d25a 2381 b73f
00000710: fc0b 0366 8c65 ae3f a603 4d83 c636 b1bf
00000720: 07b0 8b2a 39e7 c23f cca6 04f8 2aed a5bf
00000730: 9975 3896 424d c23f 0be3 6318 1191 a7bf
00000740: 4939 8db6 2a6c d1bf 3e70 3325 8fad bebf
00000750: 6249 82ba 2ca9 a4bf cbaf 8cfd 07fd ba3f
00000760: ff93 e2b4 10cb d4bf bad7 b6a1 24c0 d9bf
00000770: 21f5 a4b1 9d98 cbbf 5c5c c62d 26b6 a83f
00000780: 1d60 f3eb 424b ddbf bec6 f4f9 66c3 cabf
00000790: 23e9 cb42 042c c63f afdc 3cb5 e0d3 b33f
000007a0: 6c01 09d1 efab d33f 3d56 de24 3b3c e0bf
000007b0: 0912 6e3b 03d5 c23f 42ac b3ec 1ed7 78bf
000007c0: c36e 1c33 84d0 aa3f 5013 a9b1 f38b a93f
000007d0: 4d31 c6a8 f707 c13f 1c15 770b cc8f bb3f
000007e0: 8d9c 27a3 4834 bdbf c1b9 afc3 ccc4 a2bf
000007f0: f96f 7684 8620 c73f cf6b 3620 0861 813f
-0.1403194804912573 -0.40939666516364065 -0.28117312528526456 0.041853971765445246 -0.08017958375667827 -0.3011320335717321 -0.1064583703680547 0.03018328290521377
0.13782003986363936 -0.1507365711268732 -0.2190666433851025 0.13383247639376963 0.13089774173329677 -0.2726992996545337 -0.12044511336097119 -0.048275738448538545
-0.19168136775228045 0.09335331741866508 -0.21782485823360984 -0.3339075862881069 0.07941071779550812 0.21088810754017626 0.142674246330613 0.057322276714349064
0.0675879439817888 -0.1558584196920201 -0.2950054372321807 0.0614048585349828 -0.019885761524281655 0.07025459567194954 -0.17500196197596543 -0.1671943382281781
-0.11299298721422409 0.2604945427788178 0.10021924658741534 -0.5447750055753705 -0.11274409398336147 0.009044139570232142 0.04067781999627563 0.10309486947745357
-0.7332302888178589 -0.05122418783065325 0.04624720399004996 0.10179604965356988 0.04329661832600728 -0.19630211798471048 -0.46387694365598164 -0.1334746273843587
-0.1270465872525867 -0.02781363875970219 0.002752121570258781 0.004374216308393176 0.0009496986462169132 0.11793676616768964 0.11593840534266844 -0.08521439177097516
-0.011796817455572992 0.20898191434925767 -0.10232043628240906 -0.028109272779243723 -0.1306492483907437 0.10600208290566548 0.20995824254367057 -0.14045016298581764
-0.05870554879726944 0.05073632723030154 0.2021261170952066 -0.0855133879479059 -0.33161725497221756 -0.1378960654622926 0.1507021205656661 0.0722794447985928
-0.3060403436046993 -0.1457301581832225 0.17344757019733853 0.048587459181346104 -0.10394840845140316 0.12169205260578772 -0.02253382301515236 0.017634462750398268
-0.1053263968120769 -0.18672079753111018 -0.0961843430408236 0.08548432625635069 0.0069788882865816524 0.004254216770848096 0.15175356831800477 0.2931028712633604
0.2073952434600524 -0.22744664689653704 0.021654565507870937 0.15885157196944188 0.04298535666874887 -0.04666097837230516 -0.2588780289181047 -0.14232598571198452
-0.2679160209383988 -0.5598978325771539 -0.293930670615515 -0.007617041771942414 -0.04473270069841934 -0.2272314091006525 -0.013467953533748328 0.026138737524278536
0.08130972473491005 0.10270627297308042 0.010485249257888735 -0.26612987668798643 -0.30994977991701034 -0.04441964157682721 0.1756777108617912 0.006490921297356641
-0.06556749236707055 0.1025493221023691 -0.045377067619701936 0.10457869073502908 0.041106262220518795 -0.12472638516702764 0.2595696266531458 0.12383040332516473
0.16978580198980212 0.15324304383955115 -0.12001664161993733 -0.15321063891339418 0.1674786914179248 0.03499974627000471 -0.008470993674615524 0.038749075312668343
0.0439906168336976 -0.3324130770728066 -0.011678848626546504 -0.13973323994527423 -0.0240892932732984 0.22945842478793263 0.07252027933034129 -0.11958534917426647
0.016479476411708664 -0.05954644862396393 0.17807837224526718 -0.0031402090361880076 0.29486541188617493 0.20150635112046214 -0.08838331291296893 -0.02659283419553513
0.14206155516208813 -0.2303071260633113 0.15416684822033674 0.05149960687169281 0.16403227353327277 0.14686120191326898 -0.389514282817941 -0.4725624444574931
-0.4131234618648928 -0.24861596552838724 -0.2122770424540425 -0.1005518154009113 -0.3206730164630397 -0.3345170389017028 -0.19083050864940698 -0.029245905710069672
0.06930422804551123 -0.1174382809380557 0.024487477346795322 -0.038879187453730694 -0.32099622404079575 0.18618072225413707 0.1272797017530617 0.1310627314386692
0.11052805931808501 -0.4951791458863733 -0.20116476298933678 0.17926639799606622 -0.10114679903770452 0.13744349443507106 -0.23947045000328965 -0.06561405371449258
-0.16632499857335262 -0.022372935685465625 -0.039339488870030914 -0.12690270837926 -0.5389216262066191 -0.14317830014516256 -1.636787002734448e-06 0.19331779204536997
0.08634374068004572 -0.5383174032599048 0.32608802998892916 0.14111296260030004 -0.004532016900453724 0.0003174348385959947 -0.07023193655348402 -0.08145411845951342
-0.13841423141771425 0.19295927993253822 -0.0720200340054143 -0.14922342735902389 -0.12092564721787015 0.093449695334578 0.22741319392263337 -0.279430741924622
0.08313816345139416 -0.017878550490597663 -0.45948659988837426 -0.12729073839693092 0.04315419586774425 -0.03614903645638981 -0.19294107917483766 -0.3454109201396771
0.2854768156667985 0.17495082601429937 0.1396623418322511 0.23484066524422073 0.15192061547428795 0.18766851436645124 -0.14323679167464834 -0.05726689964245782
-0.026345870605074054 0.1301637294687865 -0.008927314466527336 -0.25282125541988115 -0.032870756639623556 -0.044514175978235614 -0.27320677970231017 -0.10130706549372752
0.13538955381290924 0.09181424109797795 0.059368503048538884 -0.0672420568998989 0.14768137528824374 -0.042825072074561626 0.14298279128062744 -0.04602864668590286
-0.27222698046979993 -0.11983580263353219 -0.04035320069046368 0.10542344989943257 -0.3248941198783654 -0.40235248367695997 -0.21559497045556333 0.04826468762183175
-0.45771859209117044 -0.20908820347681528 0.17321828137921455 0.0774517481303174 0.3073691884383354 -0.507352420815273 0.14712562944272659 -0.006064530181201512
0.05237210391916627 0.04989587348658253 0.13305564633300052 0.10766291885291362 -0.11407903655309522 -0.0366577137827906 0.1806800982275261 0.008485854609537128

cnn_1.bias f8 [16]
00000000: e26f d314 36bb b6bf 0825 708e ef87 8fbf
00000010: ca37 65f8 a914 e0bf f206 1b18 7638 acbf
00000020: 64f1 cd0d 1d88 d2bf 3856 604a 1328 dbbf
00000030: 1ed1 f219 702a af3f a7c8 dbfd fa6e bebf
00000040: a0fb 0b4b 055a d6bf dd69 6861 3a0a d4bf
00000050: 791c b97c c9ac d9bf b9a2 d9f5 558b cebf
00000060: bda9 c1e0 6382 debf 8616 4cfd 84ce b7bf
00000070: a493 5b10 bd84 c3bf 0132 7501 e0da d2bf
-0.08879411705441911 -0.015395995649685648 -0.5025224544021907 -0.05511826557404999 -0.28955770824520344 -0.42432100547134466 0.06087065045122329 -0.11888092706411389
-0.3492444260481822 -0.31312427055823183 -0.40117108516682937 -0.23862719063187912 -0.4767083830726298 -0.09299498733533981 -0.15248835848538278 -0.29460907118189544

cnn_2.weight f8 [32, 16, 5, 5]
00000000: 6334 f0c9 5f28 a03f 47c5 5f77 b681 823f
00000010: b783 5689 e7cf c2bf ff11 f5a5 d67c 8abf
00000020: 420b 9571 9b64 cc3f ecbd 9a0f 78a0 a63f
00000030: 0990 9fee 49e1 bb3f 74ba c61a fe57 c4bf
00000040: f3d8 d3e7 74e9 b8bf 0cb9 475f 2501 b9bf
00000050: 00e7 2492 e1ed b9bf bbc9 2a12 7356 cb3f
00000060: 65a4 3618 7f9f bd3f 3920 76d5 6d90 c03f
00000070: d787 3f52 a872 cebf 59a0 027e 6364 aebf
00000080: a167 ebdb 3a66 debf 85bb 5aa8 8697 e6bf
00000090: 6596 3ad0 d480 d4bf 77c3 edca 8bfb 8e3f
000000a0: 53d6 bdfb 6b27 e03f 3276 c0ff 9aab 563f
000000b0: 42a1 ac2c 3c16 7c3f 84cc ee00 8672 b3bf
000000c0: 60fd 9952 70d6 b2bf e82e d68c ce28 c63f
000000d0: 6349 9c6a 4a33 cabf 13ca c6fc 52e5 cabf
000000e0: 0b8a 3158 6d01 923f 1f74 3e7a 6dd4 a0bf
000000f0: 5e8c c2d3 4135 b23f daa2 7b91 d396 893f
00000100: fe4a 0834 ba7b 9d3f 31b5 5be7 9863 babf
00000110: 2442 1116 db99 cfbf fe55 e15a 727d d33f
00000120: 31c1 af35 51cc b0bf 3b6b d362 54a4 c23f
00000130: e1fb 837e 8c1e a7bf e086 edad 1fdd e0bf
00000140: afb1 1f0b d761 cf3f feae 6b6a 797b b2bf
00000150: b7a2 8217 397d b53f e862 7845 f2e6 c83f
00000160: e46d 4375 b5fa ddbf 1b58 e98c 7152 ddbf
00000170: 886d 28e7 5c4d e0bf 2b57 a8b1 51df d5bf
00000180: e076 ecc3 155e 813f 7b97 61b7 a746 c0bf
00000190: 91fa a73f f12e a0bf f83d 14fc b838 e5bf
000001a0: 5d63 5b78 1a47 c1bf 2f12 ae88 9cc0 6a3f
000001b0: cb2b 3c52 536b b33f 6557 b5bf 7980 d1bf
000001c0: 83a3 4d44 b9af c1bf a596 5467 d53a b4bf
000001d0: 9e30 5cbc 2b86 933f 9162 fc35 6ead d43f
000001e0: 500c 8403 6e8c d0bf e43a 1f8c 0594 d4bf
000001f0: 5447 482e 8aa3 cbbf 80a2 b59a 2fc7 a73f
00000200: 4906 d7e7 0bec ad3f f64a b312 b185 c4bf
00000210: a7e8 ecc4 66f2 d1bf a4a4 ea61 c3c6 b8bf
00000220: cc12 87a5 e863 dbbf 5db1 5301 0e80 d6bf
00000230: 7a17 77d1 96c2 bfbf 804d ea1e d222 d4bf
00000240: 4f70 ce43 399c c6bf c8f0 d3be 531d a33f
00000250: e219 d1ac ba66 ac3f a9a4 5fc1 92f7 b23f
00000260: 3c2d 6017 da31 d4bf a465 09bc 2045 bdbf
00000270: 0c59 81de 9062 c83f f18d cf6f 23d0 bc3f
00000280: 0501 9a34 98aa c2bf 9c94 bc0b 5f78 ccbf
00000290: 44ea 4118 25f3 c2bf fe6c a8ea 2f42 b63f
000002a0: 3dce fb5b 103e d63f 36f3 88d7 7af2 b33f
000002b0: 9027 29a9 7cb7 bcbf d8f3 2d20 8f5b c9bf
000002c0: 9a73 7a3d c26f c1bf a531 91de 33e0 b63f
000002d0: 1bb5 e042 23a9 ccbf 3969 511b c796 c83f
000002e0: a3a9 b59d 5439 b3bf b784 dfc6 3fe3 d4bf
000002f0: ec55 1168 eac9 82bf ec64 a499 7ec0 dbbf
00000300: 935d ba67 b7af c03f f458 a1fb 3c01 90bf
00000310: 7a7d e154 29f7 c9bf 5b85 3e06 5a0e b43f
00000320: 3053 710b 174c cbbf 36be 1501 e21b 88bf
00000330: b59a 694e d4e3 9cbf e8c0 ceca 7a8a c23f
00000340: 96ca 072d 0c47 bfbf 5f79 de5d 836d cb3f
00000350: d4fd 4dc9 db51 b33f 56e0 d0eb 1478 b2bf
00000360: 2bae e363 270b bdbf d5a8 3c2f cfa3 d1bf
00000370: 7ba1 4d92 814f 9abf 0055 ebca 45fa c2bf
00000380: 7009 02b8 0c7b d7bf d626 372f c19d cfbf
00000390: c3b1 863a 6d43 cd3f c603 5615 55cd e3bf
000003a0: 8838 eae1 79f6 cbbf 05c3 d309 d439 d5bf
000003b0: 4c02 c5d3 390f b8bf 3b36 7e1b 7a98 d43f
000003c0: 1ef6 4479 7141 db3f dfd5 ca24 ec19 c93f
000003d0: 66a9 00f1 e4c9 c7bf 7692 c19c 4dff d0bf
000003e0: af6c b0bf 9144 d6bf ebc4 aae3 7a17 9fbf
000003f0: 6aff 94dc 6715 ab3f 9b63 3eab 2de0 b83f
00000400: afc3 c3d5 28ea af3f 73e0 23ae 92f5 b63f
00000410: 0978 4ca2 f2a2 b63f a2d5 409b 79b3 ac3f
00000420: 1ae1 9f2a e6aa ce3f b92a d304 eeed c9bf
00000430: 2cc9 4c87 01fe cabf 32c0 37a1 dc9c aa3f
00000440: 09b6 698f e487 b83f c91e 03d3 8328 a0bf
00000450: 2d63 c282 55f2 bebf 6ad3 8477 93d4 58bf
00000460: 00be 3370 3285 e2bf 8ad1 c6d2 e57c 8cbf
00000470: c41e bef8 6b7c a23f d034 b2fa c52d d53f
00000480: c6ad 6666 15ee c53f 02ef d153 b976 77bf
00000490: 8c61 df3f 447a 97bf 4079 8571 4123 99bf
000004a0: e08d 68f0 c1ba c23f 0743 ac69 0881 d2bf
000004b0: 78ce 7571 e7ac c1bf d6f6 538c 548d c5bf
000004c0: 520b c868 7285 c4bf c42e f36f 7ebe c6bf
000004d0: ef87 4806 9d6d a43f 8502 5880 e95f cb3f
000004e0: 81e2 9694 c8bb a83f cbba 68b9 9bd8 dabf
000004f0: e6df 5c83 9acc e0bf 6234 0e86 060a 9ebf
00000500: 014f 1036 063d c53f c9fc e70d 0d18 b23f
00000510: f437 16d2 4b60 c6bf f160 32b4 45ed e0bf
00000520: 821a e5ec 1c99 c7bf 0c19 561b 5331 cfbf
00000530: b68d f5bd 294b c4bf fb7a d6eb 58bb d2bf
00000540: 4409 8ebb 2f50 cdbf 2fbe 4410 0429 acbf
00000550: 152a f249 0c6c d93f 0f07 bbe3 e611 c83f
00000560: 1d05 11ba 577e c93f d0b8 b591 ad6b c3bf
00000570: 49bb 0595 3ff3 b13f aeb2 9fda 2eac a1bf
00000580: d34d fe85 d7c1 a7bf c201 ac28 57e0 cbbf
00000590: 1215 f2fa 50a3 9abf 58b4 d891 f41f c03f
000005a0: a3a1 8028 4977 bfbf 9786 edd3 99fe b23f
000005b0: 100a 12ff 3755 bf3f 404d b143 8f39 c63f
000005c0: 00b6 e5e8 ee37 d3bf ba97 f94a 0a79 b03f
000005d0: c8b2 079e a04a b33f 1465 32fb 0fd2 993f
000005e0: 108f d8a4 0c39 b73f 77a2 b3dc 4069 d7bf
000005f0: c373 0911 a249 983f 1c77 1eae 618b a1bf
00000600: b9a4 7211 d109 d4bf 3145 c972 ff71 d2bf
00000610: f1ed e2dc 4536 e4bf d23c 4eff a61a dcbf
00000620: d6c0 ea42 150e d0bf 2bed 7984 be2c a9bf
00000630: 5097 e9e6 5290 b53f f07f a6d8 cd4a dabf
00000640: 045c baff 29b9 ba3f 56ef 4814 c140 cf3f
00000650: 2787 5474 f0c0 a8bf fb4f 3ee3 ef6a c13f
00000660: e8f7 ce63 ca0c babf 8653 911e 7998 b6bf
00000670: b2e7 9c74 a26b 953f 7247 42d0 c4d5 b7bf
00000680: 69a9 80f6 4f74 a33f af4e b0a4 5b46 9d3f
00000690: 5668 bd56 4a1d ab3f 6484 6d08 8d71 9b3f
000006a0: d31b 07b2 3de6 afbf eef2 977f f2d4 c93f
000006b0: 4530 2378 d814 b5bf 8939 c0dc 3d91 c0bf
000006c0: c405 c8ab 94cc c2bf a62f 3214 b2a4 d0bf
000006d0: 8f4c f002 fd50 b43f 0ca1 08ec 46c0 d33f
000006e0: 624f a572 a69e c4bf 6f4b b68f a58c 7f3f
000006f0: 8bc8 fb2c db01 dbbf 9a1d 1ce6 76b5 e4bf
00000700: 2494 bdfa 1f6b d13f fbf3 988e f4af d0bf
00000710: 9a39 9d46 d476 7c3f aef9 00be 22c2 b93f
00000720: fb30 b038 c582 c83f 7a64 b69c ca9a c43f
00000730: 8ea3 e37d 3c08 c13f 274d fafc 675c c23f
00000740: 994b 1863 ee18 b8bf e09c d6a2 a0b8 c0bf
00000750: c470 6480 971a b7bf 3a66 84b9 8969 a13f
00000760: 990b 344d 8b24 b1bf 417f 67bc 7c16 a1bf
00000770: f075 ea61 012b ddbf c249 bf27 bef2 dabf
00000780: 58a8 9660 4cb1 debf 4a68 dac0 ff5f d6bf
00000790: a7a0 3810 0d14 993f 6d2b 834d 20be c3bf
000007a0: 3f9e 0451 ca4e edbf 2493 cf14 51cd a93f
000007b0: 6b37 b641 94c0 b03f 65f6 76c0 4904 d13f
000007c0: 1090 3307 c09a d33f e9c9 d2e8 0d6d e1bf
000007d0: 66eb 105b 8285 cebf f303 e057 b9a2 e2bf
000007e0: 0b2d 50f2 23ee dfbf 3cd8 9ce4 4323 b43f
000007f0: 5c51 b443 7d32 ae3f 0922 7599 adc2 d0bf
0.03155803051058894 0.009036469953545135 -0.14696973997072657 -0.012933422984709784 0.22182028814321525 0.04419303122028481 0.10890638423694567 -0.1589353209250991
-0.09731226596690927 -0.09767373634506188 -0.10128602807972342 0.21357572924678245 0.11571497288845618 0.12940762446328494 -0.23787406936668162 -0.05935965455256626
-0.4749896190311294 -0.7059968269512501 -0.32036323866700506 0.015128223543543247 0.5048122326686076 0.001383687368622499 0.00685714250247599 -0.07596623919271123
-0.07358457581175548 0.1731203258208247 -0.204690267616182 -0.2101234182606083 0.01758356905737383 -0.03287069432483513 0.07112513942642937 0.012494709851539044
0.028792294908337894 -0.10308223389047978 -0.24688280656347772 0.30453165888806655 -0.06561763344484885 0.1456399424121971 -0.04515494388942166 -0.5269926449802504
0.24517334025530377 -0.07219656799469118 0.08394200157148189 0.1945479239664316 -0.46842705203536483 -0.45815695534600004 -0.5094437136462355 -0.3417553172051721
0.008480234185806734 -0.12715622381363886 -0.03160814191868611 -0.6631741450709674 -0.13498240353399185 0.003265672426495912 0.0758564067620419 -0.27346652719039916
-0.13817516169663344 -0.0790227296134512 0.019066508647526896 0.323085358353219 -0.25857115119305707 -0.3215345257166702 -0.21592833766822628 0.04644154323142846
0.05844151692464245 -0.1603299466429104 -0.28042000990866217 -0.09678288593808532 -0.42797294773872063 -0.3515658390959027 -0.12406294454475911 -0.31462529200617695
-0.17664256869182046 0.03733312324945498 0.05547126159267514 0.07409016819987592 -0.31554271967680214 -0.11433605757465287 0.19050799240603344 0.11255094032053826
-0.14583113258778027 -0.22242343972280743 -0.14804519352385814 0.08694743613198239 0.3475380800511834 0.07791869890293132 -0.11217478876019826 -0.1981066615225291
-0.13622310640212448 0.08935856040733954 -0.2239116741706447 0.19210137208831116 -0.0750935444863559 -0.32637018605425844 -0.009174186039824193 -0.4336239338313834
0.1303624397739723 -0.015629723413746313 -0.2028552689034589 0.07834398891875109 -0.2132595830795707 -0.011771932275876567 -0.028212849889679165 0.14485106375423773
-0.12217784976363996 0.2142795761437339 0.07546781220116056 -0.07214480168556867 -0.11345144451814153 -0.275623127107463 -0.02569391684974807 -0.1482627144638755
-0.366885356612463 -0.24700178914490917 0.22862019880029835 -0.618814984962335 -0.2184593537426205 -0.3316545577973076 -0.09398232860713412 0.3218064564215159
0.4258693393966001 0.19610358997822083 -0.18584882514671647 -0.2655824690648737 -0.34793513984341023 -0.030363006730742475 0.0528976876034893 0.0971706908297975
0.062333370298694894 0.08968464614361142 0.08842388594027296 0.05605678577596086 0.2395904262664395 -0.20257354007329356 -0.21087664705698594 0.05197801082601962
0.095823559773372 -0.03155910445053462 -0.1208852237927089 -0.0015155258279950464 -0.5787594024131408 -0.01391009854783289 0.036105512727826944 0.3309187839702874
0.17132823467305353 -0.005728458342783462 -0.022927347563241038 -0.02454855208758855 0.14632438887302524 -0.289125540920438 -0.1380891136174005 -0.16837555744125748
-0.16032247654228599 -0.177688412344983 0.039898783699996325 0.21386450545107408 0.048307674539903374 -0.41947072130544133 -0.5249760213546295 -0.029335119182679732
0.165924812696737 0.0706794890356718 -0.17481372602600198 -0.528963901469096 -0.18436013762603315 -0.24369276842862353 -0.1585437943968892 -0.2926847746947911
-0.22900959642363194 -0.055000426278976604 0.39721972676548606 0.18804632301003507 0.1991681726958995 -0.1517235719179042 0.0701179255317871 -0.03451677721736722
-0.04640077124272648 -0.21778382764752108 -0.026013627354150755 0.12597519990359518 -0.12291390646772142 0.07419740127581985 0.12239408471399593 0.17363158040334703
-0.300288894118097 0.0643469269794811 0.07535747392803238 0.025215387064780506 0.09071425461348448 -0.3657991557397859 0.023718387880183444 -0.034266521935235356
-0.31309916213883643 -0.2882078762969114 -0.631625110071978 -0.43912672931851404 -0.25085956129897846 -0.04916949622289687 0.08423345696936946 -0.4108156791426145
0.10438787930830534 0.24416364183877687 -0.048347009849989235 0.1360759601199105 -0.101757668845465 -0.0882640552166106 0.020918405883300024 -0.09310560306974283
0.03799676784577139 0.028588706900406432 0.052957842911113204 0.026800349845306562 -0.06230347440901309 0.2018111346259483 -0.08234932835620253 -0.12943242338992558
-0.1468683089042725 -0.26005222294110764 0.07936078378434018 0.30861065912405716 -0.16109161947189948 0.007702490543482251 -0.4219882907192491 -0.6471514219601204
0.272163386215029 -0.2607394592812963 0.006949261858450484 0.1006185258747567 0.19149079578381376 0.16097386028267008 0.13306385180410668 0.14344501354626368
-0.09413041991528671 -0.13063438368883507 -0.09024950871065857 0.03400831594099114 -0.06696386942716827 -0.0333746891008091 -0.4557498413285819 -0.4210658443600118
-0.479571432423318 -0.34960931618991664 0.02449055110460621 -0.15423969063553092 -0.9158679563888156 0.050394567289720166 0.06543852428714352 0.2658867244279917
0.3063201971365297 -0.544562296612921 -0.23844937750422018 -0.5823637691793223 -0.49890993750951 0.0786631043564236 0.05897895289868657 -0.2618822096451657

cnn_2.bias f8 [32]
00000000: ed22 5075 afde a1bf a235 c713 2cb6 bdbf
00000010: daaa 56c2 6791 d43f de8f 3c1a a989 c3bf
00000020: 25a0 9a4a 3a71 9b3f a0dc 87e9 2012 af3f
00000030: 8ddf 3af6 281e a0bf b5c9 7ba6 1210 babf
00000040: b37b 8289 6987 afbf 414b 06a5 2988 953f
00000050: 44ca 6e5b 9a08 cabf 8386 9813 3561 bf3f
00000060: 4927 f77c 7be5 aabf 38e5 58e9 77c8 65bf
00000070: 0cf5 4a81 bff5 ad3f 3d85 e482 8eb1 babf
00000080: d51c 2943 a7e1 94bf ca96 c36b 4fdf b1bf
00000090: b93f d2b6 0b88 903f 2b70 546e 0910 b0bf
000000a0: 2525 e9d3 08fc 97bf 3714 9784 ddfa 953f
000000b0: f99d fead 0447 6e3f 3ef6 d927 b5b2 c0bf
000000c0: 4f8b 9b55 d0ac babf 295f a419 de9a 8cbf
000000d0: c06e 11b8 8734 c4bf fa94 3cf3 cb40 99bf
000000e0: ba7f 508f dda6 abbf 2135 f82c 4ad9 93bf
000000f0: 9776 ca3a d8bb cabf f13e 6829 9eec 7d3f
-0.03490207964938983 -0.11606097681870733 0.32137483576177106 -0.15263856679041415 0.02679911690088956 0.06068518496243169 -0.03148010259377463 -0.10180775227107726
-0.06157998851380544 0.02102723188142908 -0.20338754143229398 0.1225770161477389 -0.05253206158120222 -0.0026590673467380664 0.05851553395539541 -0.10427179999944243
-0.020392049287946207 -0.0698136938186408 0.016143973382497488 -0.06274470275496984 -0.02342237275505456 0.02146478769079271 0.0036959735297903387 -0.13045372434491925
-0.1041994294169346 -0.013967261464628304 -0.15785309302997597 -0.02466124221895869 -0.05400745748943288 -0.01938358211014191 -0.20885756369255112 0.007305734462093248

fc1.weight f8 [128, 512]
00000000: b8ff 7cbc 57e9 d4bf 627e 703c 8d88 d6bf
00000010: 3bbd e369 4a04 b33f 06fc 9987 8c25 cc3f
00000020: 2bf5 5f09 af94 bebf 7027 6dc7 5e82 94bf
00000030: 6484 5004 8634 b1bf b057 15b0 8151 d23f
00000040: be2a 13a2 71cc 94bf 247e a000 7017 c9bf
00000050: 7a81 c0f7 f994 d0bf a1c4 2a40 8e8f bfbf
00000060: cb89 f2d7 c121 c23f 7930 1141 25ff ca3f
00000070: 636e 63eb 37ab d33f 6346 2754 5427 9d3f
00000080: eef3 847c 66d3 bfbf e62e acbe 37e6 cb3f
00000090: 2945 7166 2e68 96bf f631 400c b4b0 d43f
000000a0: 1f2d 0c06 8297 be3f 8d11 19b9 34f7 77bf
000000b0: 2b85 59ca 2fa3 ccbf 1be0 d911 d3e9 b8bf
000000c0: bb48 43af 4fdc cb3f fb38 8d12 9415 8a3f
000000d0: e20b 9985 e16b 91bf 2aee 832e feb0 d0bf
000000e0: c548 eccc 8e71 aabf cf41 45a3 bc86 af3f
000000f0: 8604 9349 9aeb b03f e608 d40e aa19 cfbf
00000100: f50e 0770 8358 cb3f 5c38 e3e3 7f38 e63f
00000110: f350 c5b8 7d48 b83f 6146 f3fb 2bb4 c4bf
00000120: 387d a0dd adc2 c8bf 8c80 75c4 48c7 a73f
00000130: d534 20d2 fd10 68bf c9cd ada3 53c3 d63f
00000140: 8e15 aabf 63ad 90bf f954 d69f 6d23 8f3f
00000150: fc80 ff7a d1f3 d03f 5cc9 eb1a e510 d63f
00000160: 4eb0 b692 caaa ce3f 8d17 1b55 ff28 82bf
00000170: 7a52 9f60 1325 a03f 0603 a74d 8c53 a93f
00000180: 2033 9d16 cd44 a6bf c41d 5343 c1b8 c63f
00000190: a55c 6922 430e bebf 2db0 61b9 56f7 99bf
000001a0: 1f0f 0917 a6da c33f 263b a9eb 185e 903f
000001b0: ca6c 0b75 6c3b 9fbf 5fbd 542f bbe1 bdbf
000001c0: 26c4 c408 d58a a43f 80fb 704f 9dd7 a73f
000001d0: cf38 8058 b50d b1bf ca3f f30d 5bc9 c1bf
000001e0: 22f1 4b3b c290 ab3f 5a2d a8dd bdb6 c73f
000001f0: 74f3 151b d58b bf3f 023f 0f0c 4406 d0bf
00000200: 28e9 b25d 0c0b d8bf 0904 ba6e a093 b1bf
00000210: 3164 90a7 22a7 afbf 9b7b 503c f9d6 b63f
00000220: 59d9 ce22 a12c 91bf e30e d819 4144 aebf
00000230: 7c9a 9761 8b31 653f 9a06 58fe cc8c b0bf
00000240: aa02 34bd 09e1 babf f678 ec00 a971 c6bf
00000250: 93a2 e275 33db d2bf 3943 4f81 1da2 d4bf
00000260: 117c 05ee ed46 bdbf f38c ba53 f754 b6bf
00000270: c8ad 029d 9282 b43f 0b19 b04c a7c7 c63f
00000280: 49d9 7519 e3e9 b2bf 7078 2914 8d0e 29bf
00000290: 887d f882 fb95 c83f 01db fedb 5423 cb3f
000002a0: 1a07 174d faed 853f b072 b219 344c c03f
000002b0: cdda 71f5 828e a03f da42 0003 0da7 bcbf
000002c0: a9db 0188 81b5 ccbf a6cb 0093 79b2 b5bf
000002d0: 44c1 a917 e700 c4bf b5f4 225a 7d5d a7bf
000002e0: 6abd 9a1e cd96 b03f 40f6 f0b1 5494 c4bf
000002f0: 76b8 e24f 552f cbbf 16d9 29a7 0913 d73f
00000300: 1052 0b79 740e ccbf a44b 3ea4 4014 d93f
00000310: 204b 9d0b 920a c1bf 871c e596 8e35 d23f
00000320: 18bb 2a46 ecbb c0bf 08e0 321c 51ae d23f
00000330: 6d54 683a 8488 c13f 6762 4c7e 3438 c13f
00000340: 238d 7f71 e759 a2bf 06fb 7ba1 203e a5bf
00000350: 304c bef7 fb7d b13f a0cf bcb5 022c b9bf
00000360: e24f bbe0 f410 c1bf fc10 cfe2 2fe1 b63f
00000370: 8de3 ea49 55d1 a83f 4f6d ad19 888b 993f
00000380: 4ca7 326e 38ed a13f 7a54 261a d80c ccbf
00000390: 43e9 dab6 5aa2 b43f a6f2 af71 b762 d43f
000003a0: ea47 70b7 0325 ca3f 0ff6 21b1 d239 d13f
000003b0: 1772 8486 e4ee d23f 4949 8dbd d747 bcbf
000003c0: 33ef 2b1e 9461 973f e2ce 748a 8084 b23f
000003d0: 38cb fb24 ddbc a9bf 848d 7b9b 0259 c73f
000003e0: 839e 749c 9cb0 c03f 7c6a 5189 6c69 c43f
000003f0: f249 1f6b 4bc8 cf3f 6876 883e 3fe1 93bf
00000400: 43f8 7502 faeb e13f 1a46 de61 55c8 d73f
00000410: e2cb 7249 6cc2 9d3f 8bee d603 3c8e 983f
00000420: ca7d d533 ffce babf a2b3 f73b cedc c7bf
00000430: 937e f4ac f8a6 dabf 200a 6f10 93e6 c2bf
00000440: 314a 3ba3 8080 abbf e091 8046 ea20 adbf
00000450: 413f 2136 9dae 983f 81fd 7508 f54d c63f
00000460: a32e 7cd2 26c1 98bf 5b19 5a4e 0043 ad3f
00000470: 2030 973e b23b c33f 2b04 8ac5 1bb5 b33f
00000480: bcd6 3125 2e47 b93f f83f 3f40 ae0b b73f
00000490: 423f ddda 8250 c53f e55f 05fc aa57 b03f
000004a0: 9423 5a4a d8cb c53f c241 a51d 61a7 b73f
000004b0: e198 ca71 5c5c 95bf b3c3 9121 2a05 d6bf
000004c0: 8326 befe 0b15 7dbf 250f effb 5566 bb3f
000004d0: 32c6 7787 9a90 97bf ac9f f102 ed8d b7bf
000004e0: 49df d9bd 7b48 ac3f 7742 021d 1731 6d3f
000004f0: 247a 2704 834a b9bf 9313 029a 2f93 ba3f
00000500: fb98 d245 683e c1bf 296d c1fe 4698 d5bf
00000510: b308 1b86 2702 ccbf 0c2a 3596 d464 d2bf
00000520: 0188 1a71 0a8f c1bf 139e b694 0adf b7bf
00000530: fe22 ecd5 9f22 a6bf 16b1 e9b1 862c b1bf
00000540: 56d2 5ba5 19fd cbbf 7d7e fe6c 388a c7bf
00000550: 2da9 ae97 0134 bbbf 3ad8 041e dbe2 d23f
00000560: 49dd d58b 5456 b6bf f14d c8e0 8049 b33f
00000570: 2a36 7bb1 5460 be3f 3a09 14d9 7a9d a9bf
00000580: d6cb ade6 5148 d63f 4b91 de16 0c4f e23f
00000590: dbed b2b8 727c ba3f 4273 73c0 0f6f b6bf
000005a0: 4c1d cdaa 260d 843f 75c0 a7fa 3ea2 b73f
000005b0: 0204 b45c bdf2 a33f 735e 3210 a521 c03f
000005c0: 5d91 11d3 a18c cdbf 976a db1e b3d4 853f
000005d0: 1f19 5f01 e2e9 c63f 563f 41d0 a65c c03f
000005e0: e23d b5a6 327e c3bf a241 fc14 6325 bbbf
000005f0: f2db c0db 1a37 c23f f558 bb49 6ea6 a13f
00000600: 30a4 0210 1890 933f f8cf 6b8f 86d7 a0bf
00000610: 967e 632e 0091 abbf 95bf b4c1 32a0 9abf
00000620: 60a9 3baf 3509 96bf d7c3 b38c 1cc7 993f
00000630: 4a35 6059 b6c4 7d3f fed5 71af 3009 643f
00000640: 5d3b 9e1d 7eaa a9bf b538 4ace 4ea0 823f
00000650: 2838 6e11 86ca 91bf 0e54 1e0c f02c 653f
00000660: c05b 30cb f084 a4bf 893a 776e 58af 8ebf
00000670: a43d 38c2 8f9e 833f d3dc 98e4 7f2d a6bf
00000680: e11e fe73 65a1 95bf 70c8 7086 3213 c83f
00000690: 2f8e a3de a308 c43f 6056 5a70 ee0b d73f
000006a0: 5943 f3d6 b4f2 b1bf 521f 1046 13f0 b8bf
000006b0: 6d8b f4e5 898f c4bf fc20 c145 6a29 b33f
000006c0: e561 1d0a 8135 bfbf 2bb7 38b4 76a8 bc3f
000006d0: 0b47 ca3f 6038 c6bf 2d28 c3f0 a339 c8bf
000006e0: 3ca9 ef1d 557c b13f c794 bd97 7763 ad3f
000006f0: fa64 dd62 7123 d9bf a6c8 1f8c e7f2 dabf
00000700: a36d 2636 7ace dc3f 2d74 87f3 8f2e d03f
00000710: e479 d74e b817 bdbf 0d47 3e3c 6ca6 cdbf
00000720: 64d6 06cf 3fe9 bf3f 837c c2b9 738c cd3f
00000730: b8eb a250 76f0 8cbf f167 8614 ae6d ab3f
00000740: f289 09d2 269a de3f a34c 55c9 c019 dd3f
00000750: 40c2 08ac 4b12 c53f 66ba 1cca f6be 9c3f
00000760: 68f9 a95f 85cb c9bf 0cba 6b28 bbc5 c73f
00000770: 9b04 8fb3 1914 8d3f 7758 d1c8 3a86 b3bf
00000780: 25d9 4590 241d b9bf 9fce 69e0 979d 7d3f
00000790: 8db7 bdd0 b54b c7bf cf89 a599 c2fd d1bf
000007a0: c489 34f9 3570 91bf ef7a 9f0b 4ffd d0bf
000007b0: 9b5c cc31 d615 d8bf e73a e456 3042 b3bf
000007c0: 0fad e473 a346 cdbf 0663 7dcd 296f a4bf
000007d0: 6b0f 6842 8532 90bf 57d0 6591 5210 c53f
000007e0: 8ba9 8dd7 7b62 c0bf 6560 12b1 6413 b13f
000007f0: b497 69f3 dd3c be3f c9bc d5a6 3857 133f
-0.3267421093660192 -0.35208445455825743 0.07428422055430854 0.219895902835532 -0.1194562337768345 -0.02002857296182675 -0.0672076950582024 0.2862247676433709
-0.020311141507401535 -0.19602775602923928 -0.2590928000882041 -0.12328423563555414 0.14165518802935959 0.2109114234648393 0.3073253439631342 0.028470342289273264
-0.12431946315787432 0.2179631882685193 -0.021881794931975982 0.3232851142536498 0.1194993271603164 -0.0058509883397771635 -0.2237300622974002 -0.09731787858788758
0.21766086633448886 0.012736470047141504 -0.01701309564510812 -0.26080278913988997 -0.051647627367985595 0.06157483571098831 0.06609501167533169 -0.24297071193729564
0.21363871545883453 0.6943969202927849 0.0948561264133934 -0.1617484073854483 -0.19344113656641482 0.04644229314976753 -0.0029377896726204646 0.3556717966486898
-0.01628642899824722 0.015204292717309264 0.2648814870026539 0.3447811854267877 0.239587136876596 -0.008867258820270308 0.03153286509010385 0.049465546111155986
-0.04349366093683771 0.17751327311837717 -0.11740512457014292 -0.025357585015101037 0.15511013150000338 0.015983952888116403 -0.030500120776974872 -0.11672563462774609
0.040121705360782564 0.0465668830370225 -0.06661542330423063 -0.13895738774453853 0.05383879636608159 0.18526433299153205 0.12322742377541634 -0.2503824346322149
-0.37567433500557224 -0.06865885451590271 -0.06182201667270027 0.0892177364589614 -0.0167718102927322 -0.05911448898771512 0.002587101201004414 -0.06464844903532665
-0.10499630803316032 -0.17534363312820006 -0.29462896835551894 -0.3223947298802617 -0.1143635469538682 -0.08723398012311971 0.08011738141310965 0.1779679417088079
-0.07388133403387544 -0.00019116851952366868 0.19207710166027092 0.2120157312580986 0.01070781276473869 0.12732554678668384 0.03233727689887687 -0.11192399333254902
-0.2242891229722919 -0.08475456084197094 -0.15627754836487828 -0.04563514447497977 0.06480104443720838 -0.1607766980031773 -0.2123819961611308 0.360536969419074
-0.21919113073694563 0.39186111487759434 -0.1331350857459137 0.28451885925137116 -0.13073495317572603 0.29188945535452193 0.13697865344935015 0.13452774207032123
-0.0358421636626878 -0.04148961993450055 0.06832861708089477 -0.09832779824210869 -0.13332997296549737 0.08937358176541815 0.04847208525956779 0.024946333472468493
0.03501297326267991 -0.21914197232095828 0.08060233082043049 0.31852518179202105 0.20425459343874702 0.26915423677550704 0.29583085190259467 -0.11047123315555497
0.02283317026284166 0.07233432178764646 -0.05026904179057684 0.18240387527394486 0.1303897632544598 0.1594672842500876 0.24830000620438814 -0.0194139367978238
0.5600557373106841 0.37160238797614087 0.029061977370201116 0.0239800813048832 -0.10472102179982481 -0.18642595222573016 -0.4164411248220656 -0.14766157438687433
-0.05371477119992497 -0.056891747575978036 0.024103599957299385 0.17425406373147825 -0.02417431506823554 0.057151803554961154 0.1502592855089242 0.07698224613888331
0.09874237449715911 0.09002198284656504 0.16651950537424837 0.06383770611625968 0.17028335218881507 0.09239775632636962 -0.020860142178798283 -0.3440652206255052
-0.007100149970833083 0.1070302715370955 -0.023012556570341576 -0.09200936624404105 0.05524050419347632 0.0035634471351573787 -0.09879320956631737 0.1038083792682996
-0.13471702012356687 -0.33741927031015223 -0.2188157467663295 -0.2874042002555661 -0.13717775843275606 -0.09324709063241014 -0.043232912887168226 -0.06708566516471523
-0.21866150449899874 -0.18390565225580593 -0.10626230195217508 0.29509618693862516 -0.08725479520750413 0.07534032333233377 0.11865739186324534 -0.05002960109597372
0.3481640579913664 0.5721493193309838 0.10346142777682792 -0.08763216446409408 0.009790708625259235 0.09231942767633135 0.038961331907565025 0.12602675715310205
-0.23085425191960499 0.010659598712142766 0.17901253764120725 0.12782750290579753 -0.15228875293767802 -0.10603923094118398 0.142306668569034 0.034472891331164414
0.019104362466041802 -0.032894330031837116 -0.053840642607380904 -0.02600173289573567 -0.02151950723684004 0.02517361267831916 0.007267677594439201 0.0024457884679189848
-0.050128880610933214 0.009094825430363643 -0.017374129117847442 0.0025849045204702275 -0.04007675628979923 -0.014982882376810796 0.00957977591954668 -0.043315884261056724
-0.021123490528707548 0.18808585705261605 0.1565136754135081 0.3601032349773501 -0.07010965583618879 -0.09741325817605898 -0.16063045242580234 0.07485069468487277
-0.1219101571745181 0.1119455518716818 -0.17359545817139863 -0.18925904518101913 0.06830341320861505 0.05739949919988301 -0.39278826384322907 -0.42107571300506164
0.45010237968537065 0.25284193784847525 -0.11364318775984078 -0.2316413206249809 0.12465285114634522 0.23084875650690515 -0.014130520187213821 0.05357116699742893
0.47815866958094866 0.45469684277959227 0.16462083721263987 0.02807221993060196 -0.2015234677418889 0.1857217738501763 0.014198494713016088 -0.07626693156029939
-0.09810093424116369 0.007230370777154298 -0.18199799244342466 -0.2811132908301745 -0.017029612860946633 -0.26546074042373297 -0.37633280623544757 -0.07522871133208363
-0.22871821554995406 -0.03991060861034694 -0.015817720583086208 0.1645606241178281 -0.1280054857737237 0.06670216868440233 0.11811625664412767 7.377894663361801e-05

fc1.bias f8 [128]
00000000: e7f8 925f 6421 c83f e9da 44b2 7283 6dbf
00000010: 58bb 31ab a46c c0bf 1b24 97fc dd9d a13f
00000020: ce23 e563 e016 c1bf f4d7 01d1 6742 ad3f
00000030: a7c1 4552 4b5d d33f 5d54 812c e582 c0bf
00000040: 3e39 72c6 0958 b7bf 2209 697f 74c7 bfbf
00000050: 38d1 62b9 72aa 9abf 33f1 0158 24a2 a73f
00000060: 2dcc 1e3b 2be2 a33f b072 aa4e c84b ac3f
00000070: d1c3 1813 28e8 c03f 2114 93ae f325 933f
00000080: c075 acd6 9a3a 933f 0e32 fefa a80b b23f
00000090: 24cc eedf f554 c7bf ccf7 9afc 8f87 c6bf
000000a0: 24b9 d605 43db 66bf 36ee d671 30de c1bf
000000b0: 4972 c670 6e8f 73bf 56b2 0821 c035 b5bf
000000c0: 2fcc b92f 90f6 babf 5a94 09ff b8c3 c13f
000000d0: 8acd a817 1940 ae3f 1634 caab 4bfa c63f
000000e0: 67b2 ff94 0255 bdbf bcfd 2e8f bf57 c8bf
000000f0: d0f4 ed7c 2629 953f 0776 7b6c 6dcc c63f
00000100: b26c 5efe 63cb c4bf 851e 2925 f6dc bb3f
00000110: c560 b98f c3f4 5b3f 3f52 514c 2ecf bdbf
00000120: 3b25 82b2 ab7e c63f ff03 276b 4eb6 c43f
00000130: fa85 544d fbb1 aabf 6fa5 290b 4e4b c0bf
00000140: 6e10 d89c d73b c03f a3c3 5f25 29c2 a23f
00000150: 2e61 a7d0 c993 96bf 42ef ee9f 9f8b b53f
00000160: 167a 68d6 9020 b1bf 6d8b fb4b 7ba1 b03f
00000170: 59a6 adef e1db b63f 2488 c863 1e0e d0bf
00000180: 2242 7945 c482 c5bf d010 b6ea 5cb4 c8bf
00000190: dd62 c803 e49f ca3f e48a d8b8 7b0b a5bf
000001a0: 78ab e2af 12bd b63f e466 66d7 60ca c13f
000001b0: aaac d415 bae3 683f ad5a 45d3 892d bd3f
000001c0: cc30 9f7d d77d a8bf c777 71f3 1fa5 c3bf
000001d0: b4b7 f055 8206 bfbf 3346 5e66 77cf a63f
000001e0: 22b5 b552 7645 b23f 8284 a1b3 2d3f 8a3f
000001f0: 2cca 8c96 8e57 bd3f 1f70 cc5a 0e05 61bf
00000200: 71cd 2fa8 8014 b6bf 9e91 335d 655f be3f
00000210: 84e6 dad4 d838 79bf 0dd6 e48a 01c1 b33f
00000220: 4672 2d4a 9902 b0bf 2c7c ae22 51d6 99bf
00000230: 637f 63d3 0b0c cabf 7ce4 2182 64b4 75bf
00000240: 2528 0108 39ba b23f c822 c786 033d 7b3f
00000250: b4f6 4453 f073 d23f 97ba 20a1 d19e 76bf
00000260: acdb e7ee 70e7 9cbf 4368 45a7 80f6 c03f
00000270: 33ce f6d7 f7bc bebf 66e9 8447 8529 ac3f
00000280: a4f4 80d8 99f3 c73f 853a eb98 d4d1 aa3f
00000290: 6dbe c955 504e c53f 912e 9f7d 1ccf c13f
000002a0: 8a4a b5b5 9a43 c3bf 3ef1 548c 2925 c1bf
000002b0: 8128 1392 67a6 a63f 6dd0 70d2 abdc b4bf
000002c0: ab3c af24 1f63 a53f 6b6b 82e0 dd46 693f
000002d0: 843f b130 8f36 9fbf a0c8 a4d6 edf1 a03f
000002e0: 02ab f481 9458 c4bf 14ea 3459 7e3e c13f
000002f0: e3c6 e7f4 d1d5 ba3f 7f2a d3ab 62ba a9bf
00000300: c670 1733 6b9f 9d3f 846c 8563 7e0a 9dbf
00000310: 50f8 4171 b11f af3f ed79 9992 8acb cbbf
00000320: 5397 00c4 c8de bfbf 3230 93ff 705b b1bf
00000330: a0ad 32f4 9cf8 9bbf b3dc 1aaf 9bfc b23f
00000340: 4efc ae76 1615 8a3f 4c2c b9ae 36af a93f
00000350: 0cdc d4d8 eb69 81bf 5b8e 2acf cb03 c13f
00000360: 1f63 a448 1a79 bdbf cca2 e21b 298c 843f
00000370: 7aab 20b2 6293 a3bf b7c9 94f5 4293 b2bf
00000380: cac3 d826 0817 ae3f 78de 2691 9b29 c03f
00000390: 2f7b 7a2e 501a a6bf 2e80 a49b dac4 93bf
000003a0: fd38 2e93 e2e5 c03f 2738 e1a5 a5a0 cabf
000003b0: 1b24 f378 fdb0 b3bf 447e 96d2 8901 babf
000003c0: 9593 611b 30f7 b73f 8935 4225 1470 c13f
000003d0: 68b6 a325 d0cf c1bf 0387 111c 72d1 7a3f
000003e0: 9336 c2e3 b7e7 79bf f9e1 59e7 ddae c3bf
000003f0: 8caf d603 efd7 94bf eb20 8b6e 0834 c3bf
0.18851904551224338 -0.003602718368849057 -0.1283155284795281 0.03440755566004602 -0.1335106361168798 0.05714725900990905 0.30256922754690624 -0.12899460480790284
-0.09118710608365618 -0.12413719282725258 -0.02604083305841806 0.04615892004309998 0.03883490654643427 0.05526567421222717 0.1320848553891936 0.018699462442573037
0.018778247215882393 0.07049041869886016 -0.182280287115277 -0.17601203760381023 -0.0027900990523540715 -0.13959317740033023 -0.0047754587252738035 -0.08285141760343015
-0.10532475629024483 0.1387854810047056 0.05908277906237476 0.1795134152238524 -0.11457840097109227 -0.1901778649462197 0.020664788603870943 0.1781136302660544
-0.16245698852876483 0.10884035498849627 0.0017063054828181806 -0.11644257891868735 0.17574068275670549 0.16181354744006168 -0.05213914221736711 -0.12729812188198816
0.1268262401428077 0.03663757878519582 -0.022048142776698025 0.08416173605558888 -0.06690316423962658 0.06496401410144666 0.08929264165421937 -0.25086173767533837
-0.1680531825281984 -0.19300424061305543 0.2080044764013768 -0.0411032355443888 0.08882252496793608 0.13898859517649165 0.003038276145749548 0.11397611053448982
-0.04783509644002634 -0.15347670924069076 -0.12119307134773188 0.04455159306156666 0.07137240905077083 0.012815815967942127 0.11461726356063967 -0.002077606235969767
-0.08625034433480551 0.11864312673021124 -0.006157729146872296 0.07716378823246135 -0.06253965435957651 -0.02523161672763423 -0.20349262067520177 -0.005298988924658517
0.07315403409407446 0.006649984145447881 0.2883263409783965 -0.0055225552223833385 -0.02822662790455481 0.13252266089949857 -0.12007092497406617 0.05500427721058791
0.18712161132308325 0.05238212935147594 0.1664524477850934 0.13913303502919352 -0.15050062057942554 -0.13394660331858604 0.04423831613674257 -0.08149217498504564
0.04177186320122791 0.0030855496916734524 -0.030481564852663748 0.03309577222025095 -0.15895325036520808 0.13471965175433864 0.10482513646254747 -0.050250133013453706
0.02892844676340258 -0.028360342811862185 0.06078867442646241 -0.21714908750705267 -0.12449316773617385 -0.06780153503058342 -0.027315571217213397 0.07416699433348377
0.012735534188207744 0.05016489870885063 -0.008502810053512298 0.13292834868944933 -0.11512913011064228 0.010032960093967168 -0.03823383736047155 -0.07255953307757222
0.0587694690151533 0.12626976573459436 -0.043169503854406314 -0.01930562567679333 0.13201553522635115 -0.2080275592765599 -0.0769194050109409 -0.10158597365670469
0.0936155382965594 0.13623287028569234 -0.13915445173136054 0.006547399273672874 -0.00632449943453896 -0.15377401157799378 -0.02035497151307157 -0.15002541921263143
